RNN/Experiment_2/net.pth (torch, 45984 bytes, 4 tensors)

weight f4 [100, 100]
000000 00 00 00 00 2f e1 dd 3c 59 3d a8 bc ea 8a 2b 3d
       0.0 0.027084915 -0.020537065 0.041880526
000010 72 b3 78 bd c6 3f 31 3c 83 1e 89 3b cf fb 1f bd
       -0.060718007 0.010818427 0.0041845455 -0.039058503
000020 9e 72 35 3b 9e c6 3c 3c 33 40 15 bd 7c 45 8d 3d
       0.0027686725 0.011521963 -0.03643818 0.06898019
000030 0d a5 79 3a 96 41 87 3d 1f 71 2b 3c f6 3e 3b 3c
       0.00095231907 0.066043064 0.010463982 0.011428585
000040 72 35 08 bd f4 99 88 bc d8 7f 7a 3d e8 57 e5 3c
       -0.033254094 -0.016674973 0.061157078 0.027996019
000050 5d 02 1c bd d8 38 2c 3c d9 fa 68 3b 15 9d a0 3d
       -0.03808819 0.0105115995 0.0035549907 0.07842461
000060 87 97 89 37 ca 7e 03 bc e9 9e a2 bc 0f a4 a6 bc
       1.6402233e-05 -0.008025834 -0.019851165 -0.020341901
000070 cc 66 35 bd 04 7e 9d 3d 05 f9 47 ba 7b d0 77 3b
       -0.044287488 0.07690051 -0.00076283544 0.0037813473
000080 bd 19 3e 3b de 95 23 3c 5b 62 aa bc 60 29 6c 3d
       0.002900704 0.009984462 -0.020798853 0.057656646
000090 20 b3 2b 3c 79 de 6c bc 30 c0 48 3b d4 aa 17 bc
       0.010479718 -0.0144573385 0.003063213 -0.009257037
0000a0 9c d4 29 bd 94 43 17 bd 26 21 08 3c 94 21 c2 3c
       -0.041462526 -0.036929682 0.008308684 0.023697652
0000b0 25 d1 21 3c e2 0a 5b 3b f8 3e 2d 3c a3 1c 32 3c
       0.009876524 0.0033423235 0.010574095 0.010871085
0000c0 bc e0 0a bb 43 ad ef 3a 28 26 cb 3a 29 a5 87 bc
       -0.002119108 0.0018285889 0.0015499042 -0.016558247
0000d0 4a b8 44 3a 3e 73 65 3c ff 9b d9 3c 2b 10 3d 3c
       0.0007504268 0.014004527 0.026563643 0.011539499
0000e0 85 b7 a9 3c 47 e0 c7 3a 0f 96 44 3c d1 e9 a8 bc
       0.020717392 0.0015249335 0.011998667 -0.020619305
0000f0 38 6c 18 bd 8b 8c 8e 3d 08 1d 35 3d 74 f9 b1 bc
       -0.03721258 0.069604 0.04421714 -0.021725394
000100 bf 07 12 bd 76 92 6f 3b a8 44 78 bc d6 42 4e 3b
       -0.03565192 0.0036555803 -0.015153088 0.0031472943
000110 47 59 64 3c 5a 7d b1 ba 74 39 27 3d 10 00 64 3d
       0.013937301 -0.0013541386 0.040826276 0.055664122
000120 80 ef a3 3d ea 73 83 bd 3a 04 0c bd 1c 8e 11 3c
       0.080046654 -0.06418593 -0.03418372 0.008883979
000130 ac 70 ef bc b2 26 81 3b a1 3e 08 bd 0f e4 14 bc
       -0.02922853 0.0039413804 -0.033262853 -0.0090875765
000140 67 93 20 3c f7 bd 0d bd a4 ab 84 bb 40 f8 d4 bc
       0.009800768 -0.034604993 -0.0040487815 -0.025997281
000150 c1 e2 ac bc 25 9a ef 3c 6d 27 fe bc 98 c6 09 bd
       -0.021104218 0.029248307 -0.031024659 -0.03363666
000160 d8 82 84 3b d8 f9 a0 3d af 37 67 3b fd 9e 42 3b
       0.004043918 0.07860154 0.0035280993 0.0029696815
000170 ad cc 02 bc e8 69 5b 3d 04 2c ef 3c 4d a7 da 3c
       -0.007983369 0.053567797 0.029195793 0.026691103
000180 01 ec 0a 3b 46 5c 4e 3c db be 57 3d c9 3b 70 3b
       0.0021197798 0.012595242 0.05267225 0.0036656728
000190 9f a9 ec 3c 00 00 00 00 31 c8 3f bc 23 86 bc 3c
       0.028889475 0.0 -0.011705444 0.02301318
0001a0 e0 a3 6b bd 8a ac 50 3d 1b d0 1f 3b a6 a3 6b bc
       -0.05752933 0.050945796 0.0024385515 -0.014382279
0001b0 b6 54 14 ba f0 84 69 3c d5 e3 94 bc 55 15 33 3d
       -0.0005658375 0.014252886 -0.018175045 0.043721516
0001c0 11 3a 2a 3c f6 f7 11 bc 2a 84 37 3c 37 ed 13 3c
       0.010389821 -0.008909216 0.011200944 0.009028724
0001d0 da 6b a0 bc ae 9c 51 bc 9e 42 14 3d c5 d9 5c 3c
       -0.019582678 -0.012793703 0.036196344 0.013479655
0001e0 9b 4f 92 bc 83 86 7a 3c b6 7b b9 39 a2 e3 18 3c
       -0.017860224 0.015290859 0.00035378122 0.009331616
0001f0 37 6c 3d 3c 62 fc 0d bc 95 24 87 bc 29 78 1f bd
       0.011561445 -0.00866613 -0.016496936 -0.038932953
000200 06 ef 4e bc f6 b5 e8 bc 80 0f fb 37 51 30 0c 3b
       -0.01263023 -0.028407078 2.992875e-05 0.0021391104
000210 64 bc 30 bb 22 09 87 3c fd 9a 44 bd 8d 0b ce 3b
       -0.0026967758 0.016483847 -0.04799937 0.006287998
000220 e1 63 61 3c e3 05 9e bc 54 cb 97 39 84 34 7e bc
       0.013756723 -0.019289916 0.00028952456 -0.01551545
000230 eb 78 5d bc fd 75 78 bc 4a 90 62 3c e9 c7 c0 3c
       -0.013517599 -0.015164849 0.0138283465 0.023532825
000240 bb 82 7e 3c ea 8a 2b 3a 65 5e 7e 3c 7c dd 46 3c
       0.015534098 0.0006543832 0.015525435 0.012137767
000250 d5 c1 fc bb 11 4a 3c 3d c2 9f ce ba a6 83 92 3c
       -0.0077135363 0.045969073 -0.0015764164 0.01788504
000260 70 99 be bb 92 a8 84 3c f7 47 bc 3c b5 11 25 3c
       -0.005816631 0.016193662 0.022983534 0.0100750225
000270 6c 87 6e bc ca 97 94 3c ae 24 81 3c 15 84 b6 bc
       -0.014558654 0.018138785 0.01576456 -0.022279778
000280 30 de 6a bc ce 44 4d 3d 36 84 db 3c f3 88 bc bc
       -0.0143352 0.050114445 0.026796442 -0.023014521
000290 9e e7 92 bc 6c e0 86 3a ea 1d 51 3c be 4c b5 39
       -0.01793271 0.0010290272 0.01276348 0.00034580188
0002a0 46 8b 52 3c a9 43 f8 3c 72 f7 47 3d f4 ec 35 3d
       0.012850588 0.0303057 0.048819967 0.04441543
0002b0 35 f5 0a 3d 60 3c 13 bd d2 1d 92 bc fc 65 b8 3c
       0.033925254 -0.03594625 -0.017836485 0.022509567
0002c0 6a 02 0f bd 26 43 8f 39 1a 16 a4 bc 1d c5 36 bc
       -0.03491441 0.00027325115 -0.02003007 -0.011155394
0002d0 b0 6a 77 3c e2 fe 9c bc 17 50 29 bc 77 16 b3 bc
       0.01510112 -0.019164506 -0.010334036 -0.021861298
0002e0 f5 92 12 3d b9 e0 40 bc ca 09 95 bc a5 91 83 bc
       0.03578468 -0.011772328 -0.018193144 -0.01606066
0002f0 70 9c aa 3a f1 e7 79 3d 3e 00 45 3a 8c f1 45 3a
       0.0013016593 0.061012212 0.00075149897 0.0007550947
000300 45 be dc bb cc df b7 3c 76 df d5 3c af da a3 bb
       -0.006736549 0.022445582 0.026107531 -0.0050004344
000310 f5 eb 81 bb 2f 8a 2e 3c 78 51 27 3d a5 c3 24 3b
       -0.003964896 0.010653063 0.04084918 0.0025141027
000320 1b 46 1a 3d 6e 45 a9 3b 00 00 00 00 0f 6e 99 3b
       0.037664514 0.0051657474 0.0 0.0046823095
000330 82 b0 5f bc 74 a1 28 3d f6 4b 03 3a f6 a5 a4 bc
       -0.013652923 0.0411696 0.00050085725 -0.020098668
000340 44 df 02 b9 0c 45 88 39 41 c4 97 bc 54 1d c4 3c
       -0.00012480939 0.00025991385 -0.018526198 0.023939766
000350 4e 4c ed 3b 06 d2 ff 3c 58 22 8e 3d 54 36 24 bb
       0.0072417622 0.031228077 0.06940144 -0.0025056796
000360 e2 4e 93 bc a9 43 66 bb dd 7c 42 3d e4 c0 82 3c
       -0.01798195 -0.0035135543 0.04748236 0.015961118
000370 c7 05 a3 bc 30 f0 55 b7 0e b4 de 39 de c4 00 3d
       -0.019900216 -1.2751712e-05 0.0004247729 0.031437747
000380 9c bf 73 3b f4 c1 f9 bb e4 d4 d1 b9 02 3a 26 3b
       0.0037193066 -0.007621998 -0.00040022202 0.0025364165
000390 27 71 c1 bc 80 3d 66 3d 73 96 bd bb 4f 91 d3 39
       -0.023613526 0.056210995 -0.005785757 0.0004035332
0003a0 88 07 2a 3b 40 5a ed b9 07 33 d8 bb b9 10 d3 3c
       0.002594443 -0.00045271404 -0.00659788 0.02576481
0003b0 84 0c 76 3a ac 7d 07 bc 34 8e 85 b9 08 ba ed bb
       0.000938602 -0.008269709 -0.00025473686 -0.0072548427
0003c0 39 67 b0 bc 1c 8d 9c bc d2 67 d0 ba 3f 59 3b 3d
       -0.021533595 -0.019110255 -0.0015900081 0.04573941
0003d0 22 e0 d3 ba c3 eb 29 3a d4 74 b4 b9 2c b6 9c ba
       -0.0016164819 0.00064819696 -0.0003441932 -0.0011956147
0003e0 3d 69 bc b8 5b d0 92 3c f4 ec 29 ba 95 85 bc 3b
       -8.984141e-05 0.017921617 -0.0006482147 0.005753229
0003f0 6b 95 1d 3d e6 f8 76 3b 85 78 2d 3d cf b6 64 3a
       0.038472574 0.0037684976 0.042351265 0.00087247504

bias f4 [100]
000000 00 00 00 00 00 00 00 00 00 00 00 00 00 00 00 00
       0.0 0.0 0.0 0.0
000010 00 00 00 00 00 00 00 00 00 00 00 00 00 00 00 00
       0.0 0.0 0.0 0.0
000020 00 00 00 00 00 00 00 00 00 00 00 00 00 00 00 00
       0.0 0.0 0.0 0.0
000030 00 00 00 00 00 00 00 00 00 00 00 00 00 00 00 00
       0.0 0.0 0.0 0.0
000040 00 00 00 00 00 00 00 00 00 00 00 00 00 00 00 00
       0.0 0.0 0.0 0.0
000050 00 00 00 00 00 00 00 00 00 00 00 00 00 00 00 00
       0.0 0.0 0.0 0.0
000060 00 00 00 00 00 00 00 00 00 00 00 00 00 00 00 00
       0.0 0.0 0.0 0.0
000070 00 00 00 00 00 00 00 00 00 00 00 00 00 00 00 00
       0.0 0.0 0.0 0.0
000080 00 00 00 00 00 00 00 00 00 00 00 00 00 00 00 00
       0.0 0.0 0.0 0.0
000090 00 00 00 00 00 00 00 00 00 00 00 00 00 00 00 00
       0.0 0.0 0.0 0.0
0000a0 00 00 00 00 00 00 00 00 00 00 00 00 00 00 00 00
       0.0 0.0 0.0 0.0
0000b0 00 00 00 00 00 00 00 00 00 00 00 00 00 00 00 00
       0.0 0.0 0.0 0.0
0000c0 00 00 00 00 00 00 00 00 00 00 00 00 00 00 00 00
       0.0 0.0 0.0 0.0
0000d0 00 00 00 00 00 00 00 00 00 00 00 00 00 00 00 00
       0.0 0.0 0.0 0.0
0000e0 00 00 00 00 00 00 00 00 00 00 00 00 00 00 00 00
       0.0 0.0 0.0 0.0
0000f0 00 00 00 00 00 00 00 00 00 00 00 00 00 00 00 00
       0.0 0.0 0.0 0.0
000100 00 00 00 00 00 00 00 00 00 00 00 00 00 00 00 00
       0.0 0.0 0.0 0.0
000110 00 00 00 00 00 00 00 00 00 00 00 00 00 00 00 00
       0.0 0.0 0.0 0.0
000120 00 00 00 00 00 00 00 00 00 00 00 00 00 00 00 00
       0.0 0.0 0.0 0.0
000130 00 00 00 00 00 00 00 00 00 00 00 00 00 00 00 00
       0.0 0.0 0.0 0.0
000140 00 00 00 00 00 00 00 00 00 00 00 00 00 00 00 00
       0.0 0.0 0.0 0.0
000150 00 00 00 00 00 00 00 00 00 00 00 00 00 00 00 00
       0.0 0.0 0.0 0.0
000160 00 00 00 00 00 00 00 00 00 00 00 00 00 00 00 00
       0.0 0.0 0.0 0.0
000170 00 00 00 00 00 00 00 00 00 00 00 00 00 00 00 00
       0.0 0.0 0.0 0.0
000180 00 00 00 00 00 00 00 00 00 00 00 00 00 00 00 00
       0.0 0.0 0.0 0.0

weight f4 [100, 2]
000000 59 16 8f 3e 9e 77 28 bc 90 e2 89 3e d0 29 2f be
       0.27946737 -0.010282425 0.26930666 -0.17105794
000010 75 62 73 3e 15 95 c9 3d 4c f9 7b 3e 7e 14 26 be
       0.23768027 0.09842888 0.24606818 -0.16218755
000020 11 2a 2f be 33 95 b3 3e 8a a7 82 3e 8d 59 4f bd
       -0.17105891 0.35074767 0.25518447 -0.05062251
000030 03 12 4f be 9b c9 00 be 7f 9a 77 3d 50 f6 6e be
       -0.20221715 -0.12576906 0.060450073 -0.23336148
000040 09 22 07 be 80 8d 47 be 60 58 5f be eb 57 c8 3d
       -0.13196577 -0.19487572 -0.21811056 0.09782394
000050 32 5f 73 3d 12 a1 6b be e3 95 b0 3e 07 bf 66 be
       0.059416957 -0.23010662 0.34489354 -0.22533809
000060 49 4a 6f be 0b 78 f1 3c fe a7 1b 3d 3e aa 8a 3e
       -0.23368181 0.029476186 0.038002007 0.2708301
000070 d2 a8 7a 3e 90 47 0f 3e 2f aa 5f be 08 83 d1 3d
       0.24478462 0.13992143 -0.21842264 0.1023007
000080 15 8e 82 3d 35 0d 69 be 13 f0 05 be 81 51 79 3e
       0.06374756 -0.22758944 -0.13079862 0.24347498
000090 38 d9 40 3e d3 ea 2c 3e 4f 7c 61 3e a9 45 1f be
       0.18832862 0.16886453 0.22020076 -0.15553917
0000a0 db eb 7d 3d 9c f8 6b be c6 1a 66 be d4 88 ca 3d
       0.061992507 -0.23044056 -0.22471151 0.09889379
0000b0 b4 1d 23 be 98 f8 2d be 85 86 19 3e f0 ed 5c 3e
       -0.159293 -0.16989362 0.14992721 0.21575141
0000c0 57 a3 6d be 7e 42 12 3d c1 f9 ad 3d 79 25 5d be
       -0.2320684 0.035707943 0.084949024 -0.21596326
0000d0 36 1d c4 bd 5b fa 8b 3e 83 e4 d1 bd 46 43 95 3e
       -0.09575884 0.27339444 -0.10248663 0.29152888
0000e0 5e 56 80 3d 63 66 70 be f0 93 3b 3e 7e 72 39 3e
       0.06266473 -0.23476557 0.18318152 0.18110082
0000f0 07 ad e1 3d 86 29 52 be f8 ee 59 be 87 09 c9 bd
       0.110193305 -0.20523652 -0.21282566 -0.0981627
000100 07 61 7f bc fa 72 6b be 45 57 5f be 28 f6 c5 3d
       -0.015587098 -0.22993079 -0.21810634 0.09666091
000110 76 1a 0d be 8c 67 9e 3e 15 05 8c 3e 07 07 8f bd
       -0.13779625 0.30938375 0.27347627 -0.06983762
000120 f1 99 63 be e8 be cf 3d c7 9d 22 be de e8 58 3e
       -0.22226693 0.10143834 -0.158805 0.21182582
000130 d6 eb 31 be 60 fd 1e be ca 20 2f be b3 50 2d 3e
       -0.1737512 -0.15526342 -0.17102352 0.16925316
000140 8e ad 79 3d 86 b6 70 be b7 b0 7d 3d 56 dd 6c be
       0.06095653 -0.23507127 0.061936107 -0.23131308
000150 25 95 5c be d4 24 d9 3d 7a 71 80 3e fd ed c0 3d
       -0.21541269 0.106027275 0.25086576 0.09420393
000160 0a 39 62 be 73 18 e0 3d 06 52 30 be 03 b5 25 be
       -0.22092071 0.10942163 -0.1721879 -0.16182332
000170 d3 2f 65 be 99 b2 d2 3d 2d a4 5d be 4d f1 cf 3d
       -0.22381525 0.10287971 -0.2164466 0.10153446
000180 8e de 33 be f8 8d 26 3e bf ba 80 3e 61 40 9c 3d
       -0.17565367 0.16265094 0.25142476 0.07629467
000190 ab db e1 bd 87 af 56 be 19 48 72 3e 42 06 16 be
       -0.110282265 -0.20965396 0.23660316 -0.14650825
0001a0 b6 8a 26 bc 5f d2 8a 3e 79 05 64 be 46 29 b6 3d
       -0.010164907 0.27113625 -0.22267713 0.08894591
0001b0 6e 71 d5 3d 6a 80 6c 3e c8 93 5d be b7 dd cc 3d
       0.104220256 0.23095861 -0.21638405 0.10003226
0001c0 5e 97 ba 3d 59 ca 7c 3e 6c ad 6d 3e a2 09 22 be
       0.09110902 0.24686565 0.23210686 -0.15823987
0001d0 a5 13 62 be cb f7 bf 3d a1 f3 a7 bd 21 b1 8f 3e
       -0.22077806 0.09373435 -0.082007654 0.28064826
0001e0 15 55 64 3d 7f e6 70 be ca af b1 3e c7 67 6c be
       0.055745203 -0.23525427 0.3470443 -0.23086463
0001f0 88 14 8f 3e 79 93 17 be 7b 47 f5 bd 92 9a 89 3e
       0.27945352 -0.1480235 -0.119765244 0.2687574
000200 91 15 7c 3d 7c 79 6b be 57 27 44 be 8a 35 06 be
       0.061544005 -0.22995561 -0.19155632 -0.13106361
000210 a2 2c 51 3e 43 99 1c be 52 8f 31 be 46 8f 1c be
       0.20427182 -0.1529284 -0.17339829 -0.1528903
000220 16 be 61 be bb 51 c3 3d df d1 8f 3e 39 76 47 be
       -0.22045168 0.09537073 0.28089806 -0.19478692
000230 88 ed 9c 3e 93 70 50 be 26 59 90 3e 20 f3 1b be
       0.30649972 -0.20355444 0.28193015 -0.15229464
000240 6a e4 a7 3e 47 a9 51 be 95 df 15 be f4 83 c6 3e
       0.32791454 -0.2047473 -0.14636071 0.38772547
000250 7b ae 7e 3d a4 84 6b be 4a 7d 8b 3e 44 3a 47 be
       0.062178116 -0.22999817 0.27244025 -0.1945582
000260 41 bc 02 be 12 a2 a4 3e 2d 3d 1f be d3 3d 2a be
       -0.12767126 0.321549 -0.1555068 -0.16625147
000270 46 34 84 3d 5b 1d 68 be fa c3 2c be 7b bd 33 3e
       0.06455283 -0.22667448 -0.16871634 0.1755275
000280 23 d7 5f be 39 34 cc 3d 64 44 76 3d 28 e6 6a be
       -0.21859412 0.09970898 0.060123816 -0.2293936
000290 15 49 3c be 66 cf 15 3e ed 5d 05 be 02 5c 85 3e
       -0.18387254 0.14629897 -0.13024111 0.2604676
0002a0 f4 98 6f 3e 4e 58 f4 3d 65 91 aa bd fa b7 96 3e
       0.2339819 0.11930905 -0.08328513 0.29437238
0002b0 4b 53 7b 3d 0e 27 6b be 78 c7 78 3d 47 d7 6b be
       0.06135873 -0.22964117 0.060737103 -0.2303134
0002c0 87 47 3e be 6a 6e 16 be 91 24 b2 3e 1e 17 52 be
       -0.18581973 -0.14690557 0.34793523 -0.20516631
0002d0 e9 5d 34 be 69 54 20 be 48 3e 3c be ef 44 01 be
       -0.17613949 -0.156572 -0.18383133 -0.12623952
0002e0 6a 14 07 3c 41 14 67 be 7d 0a 71 3e 87 37 e1 3d
       0.008244613 -0.2256632 0.23539157 0.10996919
0002f0 c3 63 7d 3e 43 b9 25 be 33 bb 05 3e 24 62 63 3e
       0.24745087 -0.16183953 0.13059692 0.22205406
000300 fb 01 e5 bd 7c 05 90 3e 3f 10 61 be 8d 27 ca 3d
       -0.11182018 0.28129184 -0.21978854 0.09870825
000310 b7 6d a6 3e dd eb 56 be 94 c5 5a be 4e a6 c5 bd
       0.3250558 -0.20988412 -0.21364433 -0.09650861

weight f4 [2, 100]
000000 47 56 c5 3d 6b f6 ff bc 5b d1 34 3d 5f da 90 3d
       0.09635597 -0.031245431 0.04414497 0.07072901
000010 fb bb b3 bc d3 8f 3d bd 4a f5 29 bd 5c 98 82 3d
       -0.021940222 -0.04627974 -0.04149369 0.063767165
000020 d3 e6 83 bc 9f 02 d3 bc 01 65 31 bd 7f 0d 0b 3e
       -0.016101277 -0.025758086 -0.043309215 0.13579367
000030 7e cc 1a 3d 9d e4 ba bd 94 e7 b8 3d 43 29 b4 bd
       0.037792675 -0.09125636 0.09028545 -0.087969325
000040 90 93 fe 3b b1 01 a4 3d e9 6d 38 bc 81 58 99 bd
       0.0077690557 0.08008135 -0.011256673 -0.07487584
000050 f0 46 d0 bc 35 54 02 3c 49 18 80 bc 25 89 1f 3d
       -0.02542445 0.007954647 -0.01563658 0.03894915
000060 2e ae ab bd 4a be 2b bb 5d d6 2d bd de 6a 50 bd
       -0.083828315 -0.002620595 -0.04244076 -0.050883166
000070 fa 10 00 3e 60 5f b4 bd 0b 08 0e bc 27 b8 87 bd
       0.12506476 -0.08807254 -0.00866891 -0.06626921
000080 d4 89 73 bc 52 ea 1e 3c 7d 76 1c be dd 5b 34 3d
       -0.014864404 0.009699421 -0.15279575 0.04403292
000090 ea 7d 2f bc bb ca e7 bd 35 c5 16 bd 39 c4 e6 bc
       -0.010711173 -0.11317965 -0.036809165 -0.028169738
0000a0 4c 69 ab 3d 8f e4 7e 3d 49 87 d1 3b 50 1d 39 3d
       0.08369693 0.06222969 0.006394301 0.04519397
0000b0 bb 50 ba 3d 52 19 7f bd 89 16 38 3d bf b0 31 bd
       0.09097429 -0.062280007 0.044943366 -0.04338145
0000c0 2e fc 84 bb 51 61 b7 3d 00 3b 94 bd ad 4d 8c bd
       -0.0040583825 0.089541085 -0.07237816 -0.06850753
0000d0 7b 28 5e bd fc 96 4f bd 4d e1 4f bd 38 95 33 bd
       -0.054237824 -0.0506811 -0.050751973 -0.043843478
0000e0 0c d6 9f bd f0 6d ea 3a a5 17 a4 bc 9c 3d 9c 3c
       -0.07804498 0.0017885547 -0.020030806 0.019072346
0000f0 84 09 38 3b b2 03 ba 3d d8 62 aa 3d f7 8f ad 3d
       0.0028081844 0.09082736 0.08319634 0.08474725
000100 3e 80 31 bc 6e cc aa bd 82 1f 85 3b 19 c0 8d bd
       -0.010833798 -0.08339773 0.004062594 -0.06921405
000110 06 3c 98 bd ca 98 95 bd e2 06 56 3d 6c a2 cd 3d
       -0.074333236 -0.07304533 0.052252658 0.10040745
000120 ba 7f cf 3d d7 f9 ba bc a7 27 2f 3b 0d 78 b2 bd
       0.10131784 -0.022824211 0.0026726515 -0.08714304
000130 25 c5 8d 3d 47 2e 1a 3d 82 3f 30 3c 64 13 59 3d
       0.06922368 0.03764179 0.010757329 0.052997008
000140 bb 86 74 3c de c3 6e bd c2 15 0a 3c 06 a8 2c 3e
       0.0149247 -0.058292262 0.008428039 0.16860971
000150 47 6d da 3d 9f 62 44 bc 66 4a 11 ba fb 0f ea 3c
       0.10665374 -0.011986404 -0.0005542397 0.028572073
000160 72 40 98 bd 36 27 5b 3d 7f ed 3c bd 02 19 32 3a
       -0.07434167 0.05350419 -0.04612493 0.00067938876
000170 24 00 ef 3c 7d d6 1a bc ad 3d 0b bd d6 be cb bb
       0.029174872 -0.009450552 -0.033994365 -0.006217818
000180 86 e0 fd 3d 5f b9 ac bd e6 df c8 3d 76 4d 95 bd
       0.1239634 -0.08433794 0.0980833 -0.07290165
000190 7b 8b 9d bd 93 3e 00 3e f7 b6 35 3c 76 8a 71 bc
       -0.076926194 0.1252387 0.0110909855 -0.014742484
0001a0 29 32 98 3d a1 45 bf 3c a7 54 b6 bd 50 e9 a1 bd
       0.07431442 0.023348631 -0.08902865 -0.07905829
0001b0 de 59 c2 bd d9 cf 81 3c e4 6b b8 bc b3 91 f7 bd
       -0.09489797 0.01584618 -0.022512384 -0.12088337
0001c0 f0 89 d0 bc 5e 3f d9 3d 1f b3 16 bd 21 3a 8a 3d
       -0.025456399 0.106077895 -0.036791917 0.067493685
0001d0 5c 65 73 3b 73 76 83 bd d9 82 80 3d c8 07 72 3d
       0.0037139272 -0.06419077 0.06274957 0.059089452
0001e0 b0 59 cb bc fd 0d 75 bd 40 c2 7b bd b3 54 a3 3d
       -0.02482304 -0.059827793 -0.061464548 0.079751395
0001f0 d4 9e 26 3d 2c fb 2a 3c a5 82 66 3d a4 47 f9 3a
       0.040678814 0.010435861 0.056276936 0.0019018543
000200 2a d5 d3 bd 4e 34 a5 3d c8 7a 7f ba ed 54 ed bc
       -0.10343392 0.08066617 -0.0009745774 -0.02897116
000210 61 fa 2b bc 32 4d c9 3b 54 12 00 3e 70 6b bf 3c
       -0.010496707 0.0061432356 0.12506992 0.02336666
000220 d3 e8 3a bd 3c fe df 3d 2b af 21 bd 2e fe 65 3d
       -0.045632195 0.10937163 -0.039473694 0.056150608
000230 57 1d bd bd e0 92 81 bd 33 5f 01 3d 2b ce 4d bc
       -0.09234112 -0.06326842 0.03158493 -0.012561361
000240 20 01 f8 bc bc 26 a4 bd 6b 71 81 bd 00 eb 43 3d
       -0.030273974 -0.080152005 -0.06320461 0.047831535
000250 c7 eb 27 bd 92 6e b0 bd 51 52 90 bd 2d 59 d2 3d
       -0.04099634 -0.086148396 -0.070469506 0.10270915
000260 bf ff b4 bc 17 d2 78 bc ae 70 71 bd 07 64 97 3c
       -0.022094605 -0.015186808 -0.05894535 0.018480314
000270 4e 1e c1 3d 76 93 96 3c b8 84 42 bc 44 b5 8d 3d
       0.09429608 0.018380862 -0.011872463 0.06919339
000280 0d 1a bd bd 5c 85 ef bd d1 ef 40 bd 75 65 9f 3a
       -0.092334844 -0.11695358 -0.047103707 0.0012160974
000290 ae 16 b4 bc 2b c5 d5 bc 10 41 d9 3c e8 02 f5 bc
       -0.02198347 -0.026094994 0.026520282 -0.029908612
0002a0 12 f3 5a 3c 10 54 84 3d 54 63 82 3b 1d 08 c4 bd
       0.013363617 0.06461346 0.003979126 -0.0957186
0002b0 ae 45 54 bd d9 b9 a3 3d 44 b3 de bc a3 3f b8 3d
       -0.051824264 0.07994432 -0.02718509 0.08996513
0002c0 9b 40 ff 3b 7d 41 13 bd bf 0f 42 3c 0e 0c 4c bd
       0.007789684 -0.035951126 0.0118445745 -0.049816184
0002d0 7e 6d 39 bb f7 cb d8 b8 2a ec 5f 3b ca 66 cd bd
       -0.0028294022 -0.00010337674 0.0034167864 -0.10029371
0002e0 8c 58 b2 3c 0e 05 e2 3c aa 5a bd bc 31 ca 52 bd
       0.021770738 0.0275903 -0.023114521 -0.051462356
0002f0 59 9b 97 bd 7c 41 bf bd 22 7b 9f bd 02 bd 02 3d
       -0.07402677 -0.09338662 -0.077871576 0.031918533
000300 15 de 94 bb b4 a3 a1 bc 9f 8a 3a 3d bc e9 0e bd
       -0.004543076 -0.01973138 0.045542356 -0.034890875
000310 d3 68 29 bd a8 7c 44 3d 24 7d 52 bd 8a 0d e8 bc
       -0.041359734 0.047970444 -0.051388875 -0.028326768
